hand-gesture-recognition-mediapipe/model/keypoint_classifier/keypoint_classifier.tflite (tflite, 6560 bytes, 6 tensors)

sequential_1/dense_5/BiasAdd/ReadVariableOp f4 [5]
-0.3913946 -0.077245295 0.068292 -0.09002135 0.7640259
00000000: df64 c8be c832 9ebd addc 8b3d 1d5d b8bd
00000010: 3497 433f

sequential_1/dense_4/BiasAdd/ReadVariableOp f4 [10]
0.3822074 0.6072955 0.061418805 0.48888564 0.56726795 0.38773435 0.33459154 0.063977465
0.6276615 0.204206
00000000: b0b0 c33e b877 1b3f 4992 7b3d 384f fa3e
00000010: 7938 113f 1e85 c63e 954f ab3e 9e06 833d
00000020: 6dae 203f 611b 513e

sequential_1/dense_3/BiasAdd/ReadVariableOp f4 [20]
-0.8760909 -0.38074854 -0.9708615 -0.5470012 -0.46639445 -0.5632842 -0.7963783 -0.84695864
-0.6937485 -1.0252066 -0.37359235 -0.59584653 -0.5598056 -0.58170825 -0.6789054 -0.43917254
-0.49476758 -0.98646426 -0.41465595 -0.3341721
00000000: 7e47 60bf 79f1 c2be 618a 78bf 4508 0cbf
00000010: 41cb eebe 6533 10bf 73df 4bbf 48d2 58bf
00000020: 8099 31bf f839 83bf 7f47 bfbe 6689 18bf
00000030: 6b4f 0fbf d5ea 14bf bfcc 2dbf 39db e0be
00000040: 2d52 fdbe ec88 7cbf c94d d4be 9b18 abbe

sequential_1/dense_3/MatMul f4 [20, 42]
-0.22545421 -0.09278533 -0.35375962 0.036119577 -0.30799493 -0.30500165 -0.29735038 -0.33056924
-0.3111089 -0.4448822 -0.37133884 -0.22833337 -0.09503801 -0.18765898 0.09613254 -0.029929716
0.16800547 0.01597583 -0.4649185 -0.03765481 -0.10400015 -0.044544812 0.17869902 0.056804284
0.16708246 0.06993631 -0.24291252 0.058610372 -0.15478848 -0.021301046 0.12582088 0.051682454
0.15287465 0.046773393 0.093972765 0.055117037 -0.048490696 0.05527137 0.044215597 0.09265717
0.024561983 0.099449046 -0.026125431 -0.06989364 0.14447011 0.28625354 -0.1366831 0.0026246784
-0.34247553 -0.14219534 -0.7313867 0.03745607 0.0046424004 0.2695843 0.04120532 0.07054857
0.060368977 -0.09436684 0.027218455 -0.1272872 -0.06532539 0.28349668 0.012786294 -0.0053752176
0.17082438 -0.095932625 0.1967402 0.020740023 -0.14179723 0.31714672 -0.029976338 0.018695254
0.53351384 -0.17861708 0.74541545 -0.16416769 -0.09557818 0.3753641 -0.023522038 0.11228626
0.2081823 -0.074838 0.5078338 -0.15043426 -0.029625893 0.13499749 0.8329558 -0.05566417
0.5403835 0.1230205 0.33984303 0.10809705 0.2675622 -0.21063863 0.22994797 0.43951678
0.051750984 0.17461434 -0.060306527 0.08943642 -0.12062241 -0.080695175 0.12005042 0.3725954
0.098489575 0.0050774454 -0.031836282 -0.007779746 -0.09123719 -0.01671412 0.13128108 0.15299708
0.15754567 -0.1266385 -0.028781038 -0.088419 -0.083436176 -0.04147543 0.2575768 0.032631334
0.24839292 -0.05141939 0.10035969 -0.097647324 -0.008548031 -0.073108494 0.027032286 0.07790607
-0.050108947 0.5610339 0.010915282 0.2298726 0.058521047 0.22885987 0.093613245 0.18800424
-0.023439959 -0.0023706625 0.034888014 0.068856575 0.06492677 0.097977534 0.08174868 0.09609855
0.056849636 0.0076980637 0.046698194 0.058418352 -0.18371676 -0.36457112 -0.7354753 -0.41110173
0.09000065 0.012723893 0.034602825 -0.008005726 -0.3152732 -0.12660821 -0.32715493 -0.40057996
0.15484422 -0.012261415 0.05149456 -0.032899886 -0.13753225 -0.24924383 -0.2762281 -0.53944147
0.039788336 0.04725346 -0.28734604 -0.16313691 -0.12258505 -0.14377615 -0.3006398 -0.28856933
-0.72138727 -0.5083855 0.012683515 0.16226742 0.054537226 0.072211765 0.020061629 0.056494307
0.030283071 0.054310612 -0.020589128 0.12533085 0.08309431 -0.032734394 0.003725017 -0.03158494
-0.11189603 0.012771945 -0.1203803 0.1205515 0.05993354 -0.111926325 0.17963393 0.047341067
0.70691836 0.25661576 -0.10341389 0.12135831 0.11123359 -0.078942575 0.17674105 0.090698786
0.57870597 0.43560022 -0.16879928 -0.21714333 0.12109181 -0.074127935 0.23491557 -0.09612652
0.40177497 -0.15716086 0.48012573 -0.9551052 -0.12932189 -0.0955779 -0.056448992 0.00961912
-0.04205897 0.037542004 -0.03995477 0.04985141 -0.09997593 -0.11897134 0.0065774247 -0.003811213
0.028681483 0.058696218 -0.025199756 0.040601958 0.023807704 -0.13919322 0.0638718 0.028677166
-0.14169358 0.1911244 -0.31878307 0.19734423 0.13880956 -0.10508057 0.03474246 0.13617468
-0.14916794 0.370958 -0.40079528 0.5998576 -0.058982104 0.26133657 -0.020291809 0.4177669
00000000: 78dd 66be 3c06 bebd fb1f b5be 1ff2 133d
00000010: 83b1 9dbe 2d29 9cbe 4f3e 98be 5f40 a9be
00000020: aa49 9fbe 9ac7 e3be 2020 bebe 39d0 69be
00000030: 4aa3 c2bd ad29 40be 23e1 c43d 2a2f f5bc
00000040: a009 2c3e bedf 823c cc09 eebe ee3b 1abd
00000050: 08fe d4bd 9f74 36bd e0fc 363e 9cab 683d
00000060: aa17 2b3e c53a 8f3d 0fbe 78be 6e11 703d
00000070: df80 1ebe 887f aebc 30d7 003e fbb0 533d
00000080: 2c8b 1c3e 7595 3f3d cb74 c03d 67c2 613d
00000090: 2e9e 46bd 3b64 623d 6a1b 353d 0bc3 bd3d
000000a0: 3636 c93c f1ab cb3d 0005 d6bc 6624 8fbd
000000b0: f9ef 133e d38f 923e a8f6 0bbe cc02 2c3b
000000c0: f458 afbe a89b 11be 293c 3bbf 896b 193d
000000d0: 471f 983b f406 8a3e e9c6 283d c57b 903d
000000e0: 7645 773d 6743 c1bd 3df9 de3c 9357 02be
000000f0: 51c9 85bd 7a26 913e 9b7d 513c 9822 b0bb
00000100: 96ec 2e3e 5378 c4bd 4376 493e fbe6 a93c
00000110: 4b33 11be 0e61 a23e f090 f5bc ca26 993c
00000120: 5d94 083f 65e7 36be 8cd3 3e3f 931b 28be
00000130: 7ebe c3bd b92f c03e 4ab1 c0bc 57f6 e53d
00000140: be2d 553e aa44 99bd 6501 023f 700b 1abe
00000150: 00b2 f2bc c83c 0a3e 973c 553f 1d00 64bd
00000160: 9356 0a3f 2cf2 fb3d e8ff ad3e fc61 dd3d
00000170: eafd 883e a7b1 57be 7b77 6b3e 5808 e13e
00000180: d7f8 533d 1ace 323e fa03 77bd 712a b73d
00000190: e208 f7bd 8343 a5bd ffdc f53d d3c4 be3e
000001a0: e7b4 c93d b360 a63b c366 02bd 3ded febb
000001b0: 90da babd 0dec 88bc 8c6e 063e 44ab 1c3e
000001c0: a753 213e 86ad 01be 36c6 ebbc 0515 b5bd
000001d0: 96e0 aabd 24e2 29bd 1be1 833e 6fa8 053d
000001e0: b75a 7e3e 239d 52bd 6289 cd3d 52fb c7bd
000001f0: 0a0d 0cbc e8b9 95bd d072 dd3c 388d 9f3d
00000200: 0a3f 4dbd eb9f 0f3f 03d6 323c b963 6b3e
00000210: c4b3 6f3d 3e5a 6a3e 4db8 bf3d 2f84 403e
00000220: 2805 c0bc 1e5d 1bbb bce6 0e3d ad04 8d3d
00000230: 54f8 843d 72a8 c83d da6b a73d 51cf c43d
00000240: 2adb 683d 0a40 fc3b 9b46 3f3d 1548 6f3d
00000250: 3f20 3cbe 11a9 babe 1c48 3cbf ed7b d2be
00000260: 4352 b83d e077 503c b1bb 0d3d 732a 03bc
00000270: 7d6b a1be 95a5 01be da80 a7be d118 cdbe
00000280: 7c8f 1e3e 1ae4 48bc f6eb 523d 08c2 06bd
00000290: 41d5 0cbe c639 7fbe c56d 8dbe d618 0abf
000002a0: 18f9 223d d88c 413d 051f 93be 5d0d 27be
000002b0: df0d fbbd 0e3a 13be 76ed 99be 5cbf 93be
000002c0: d6ac 38bf 8d25 02bf 85ce 4f3c 6e29 263e
000002d0: 6d62 5f3d c3e3 933d 4958 a43c 9366 673d
000002e0: 3414 f83c ce74 5e3d 88aa a8bc bb56 003e
000002f0: 592d aa3d 8014 06bd 6a1f 743b 365f 01bd
00000300: bf29 e5bd 6c41 513c f289 f6bd b4e3 f63d
00000310: df7c 753d a139 e5bd f5f1 373e b5e8 413d
00000320: 9af8 343f 2463 833e a9ca d3bd b58a f83d
00000330: 70ce e33d a5ac a1bd 9bfb 343e 49c0 b93d
00000340: 1326 143f fe06 df3e b8d9 2cbe d25a 5ebe
00000350: fcfe f73d 63d0 97bd b58d 703e fbdd c4bd
00000360: 73b5 cd3e c7ee 20be 0ad3 f53e c681 74bf
00000370: f56c 04be 59be c3bd 0f37 67bd 8399 1d3c
00000380: 0746 2cbd a5c5 193d 9da7 23bd fe30 4c3d
00000390: 2ec0 ccbd 3fa7 f3bd 7087 d73b 8bc5 79bb
000003a0: 6ef5 ea3c 726b 703d b86f cebc 3d4e 263d
000003b0: 6008 c33c ab88 0ebe 38cf 823d 60ec ea3c
000003c0: 1f18 11be 1db6 433e 8937 a3be 9b14 4a3e
000003d0: 1824 0e3e 7b34 d7bd 1c4e 0e3d 6071 0b3e
000003e0: 7bbf 18be 35ee bd3e 0a35 cdbe 4590 193f
000003f0: 3897 71bd e8cd 853e 023b a6bc 8be5 d53e

sequential_1/dense_4/MatMul f4 [10, 20]
-0.22416289 0.49266806 -0.19547488 0.98556864 0.020960769 0.32864976 -0.3317885 0.9636186
-0.45672914 0.5248478 -0.5462565 0.9229872 -0.93996584 0.41330302 -0.28943136 0.32319212
0.062806904 -0.49052843 0.609074 -0.0074971197 0.24845769 0.00913762 -0.32635143 -0.8407415
0.28713828 0.33189762 -0.16027316 -1.5652385 0.5390071 -1.0870411 0.016720297 -0.4448841
0.2391825 -1.1405065 -0.036014702 -0.113529496 -0.044933077 -0.4641118 -1.0642239 0.0625952
0.25100783 -0.6288826 -0.5462655 -0.60565066 0.10568602 0.36670524 -0.6405691 -1.1535064
0.022310795 0.1716497 0.49821538 0.5447641 0.7413402 0.9153339 -0.13305189 0.26513582
-0.2085267 0.51318264 0.8366672 -0.037907563 -0.03458951 -0.7082543 -0.41884524 -1.3606229
-0.6266631 -0.7094448 0.12824191 -0.8903685 0.15665762 0.02921133 -0.1724658 -0.9588607
-1.00051 -1.0182171 0.017811315 -0.7422603 0.3723758 -0.03011172 -0.7545667 0.8245141
0.72662425 -0.282634 1.0711199 -0.105597995 -0.23119792 -0.24869803 0.6579723 -0.023104684
0.7924833 0.035789568 -0.20044698 -0.082327396 -0.45089486 0.1737668 0.88767314 -0.23220716
0.73070145 0.5283982 0.06623515 0.96327066 0.42876515 -0.12660608 0.84518874 0.14081256
0.045797624 0.31023028 0.8090216 0.024839137 0.45444655 0.66759014 -0.11732412 0.16433
-0.092867665 0.07747766 0.21771532 0.18760337 -0.2693 0.7743241 0.11378787 -0.60251486
0.045494534 0.36110014 -0.0393175 -0.4109378 -0.09610631 -0.5822866 0.0026255306 -0.14042948
0.34403148 -0.28609356 0.7013448 -0.25927374 -0.33307102 0.053203322 0.21309637 -0.99060297
0.7332386 -0.2718107 0.5237956 0.84371203 0.89186096 0.4769238 0.6559498 -0.084081456
1.05333 1.4079444 0.5076271 -0.04749205 0.30382693 0.23146048 -0.2058018 0.90234387
-0.27015755 0.5246895 0.66511554 0.3346499 1.4310409 0.5626895 0.0065964833 0.0022122294
0.19515063 -0.814902 0.03777933 -0.76706594 -0.04360799 0.06774205 -0.08590025 -0.71052945
-0.6820395 -0.51876724 -0.46030226 -0.32857054 -0.15025319 -0.80549616 0.12485354 -0.020378865
-0.41375688 -0.48991898 -0.59009314 0.1577466 0.54290205 0.5129118 0.88273484 0.2340382
0.72362417 0.9146929 -0.0077325776 0.08643538 -0.17814584 -0.31936675 0.7423719 0.2243702
0.88797337 -0.05382185 0.30025738 0.961355 0.4895629 0.26622343 0.062672526 1.4372581
00000000: f58a 65be fd3e fc3e 912a 48be 3a4e 7c3f
00000010: ebb5 ab3c c844 a83e 2fe0 a9be b5af 763f
00000020: 67d8 e9be 6d5c 063f 77d7 0bbf e448 6c3f
00000030: 9aa1 70bf 749c d33e 5930 94be 7079 a53e
00000040: e8a0 803d 8b26 fbbe 46ec 1b3f 66aa f5bb
00000050: b16b 7e3e f5b5 153c 8917 a7be d63a 57bf
00000060: ca03 933e 7cee a93e a61e 24be bc59 c8bf
00000070: 5ffc 093f 2a24 8bbf 01f9 883c d9c7 e3be
00000080: 42ec 743e 1efc 91bf 2784 13bd 2782 e8bd
00000090: bf0b 38bd 10a0 edbe 7d38 88bf ea31 803d
000000a0: 1984 803e 73fe 20bf 0ed8 0bbf ec0b 1bbf
000000b0: e971 d83d cac0 bb3e 56fc 23bf 19a6 93bf
000000c0: 21c5 b63c f0c4 2f3e 1616 ff3e a975 0b3f
000000d0: 79c8 3d3f 5353 6a3f c13e 08be e2bf 873e
000000e0: 0688 55be f05f 033f d22f 563f f644 1bbd
000000f0: bbad 0dbd 2750 35bf e272 d6be e428 aebf
00000100: fe6c 20bf 2d9e 35bf d951 033e 31ef 63bf
00000110: db6a 203e 994c ef3c e09a 30be e577 75bf
00000120: b610 80bf f054 82bf 09e9 913c c504 3ebf
00000130: 0aa8 be3e dbac f6bc 492b 41bf 5b13 533f
00000140: 0c04 3a3f 67b5 90be 751a 893f c343 d8bd
00000150: 26bf 6cbe b2aa 7ebe df70 283f 0946 bdbc
00000160: 30e0 4a3f 1598 123d f941 4dbe 449b a8bd
00000170: b1db e6be edef 313e 8c3e 633f b7c7 6dbe
00000180: 400f 3b3f 1b45 073f 4ba6 873d e898 763f
00000190: 1b87 db3e 06a5 01be 4a5e 583f 2b31 103e
000001a0: 4a96 3b3d 81d6 9e3e 0a1c 4f3f 727b cb3c
000001b0: 38ad e83e 30e7 2a3f a147 f0bd 2046 283e
000001c0: 6731 bebd 9bac 9e3d c4f0 5e3e 191b 403e
000001d0: b1e1 89be 1b3a 463f 9d09 e93d 6a3e 1abf
000001e0: 7a58 3a3d 1ee2 b83e 630b 21bd 7066 d2be
000001f0: 63d3 c4bd bc10 15bf 1811 2c3b bfcc 0fbe
00000200: e524 b03e db7a 92be 558b 333f 87bf 84be
00000210: 4988 aabe baeb 593d ef35 5a3e 2898 7dbf
00000220: 86b5 3b3f c62a 8bbe 7817 063f 83fd 573f
00000230: 0051 643f 5b2f f43e 53ec 273f e632 acbd
00000240: 84d3 863f 8637 b43f daf3 013f 0687 42bd
00000250: 348f 9b3e fa03 6d3e b5bd 52be 0200 673f
00000260: 1752 8abe 0d52 063f 0345 2a3f 3b57 ab3e
00000270: 592c b73f 6b0c 103f 5027 d83b 0dfb 103b
00000280: 91d5 473e 6b9d 50bf 80be 1a3d 6f5e 44bf
00000290: 4b9e 32bd 58bc 8a3d 78ec afbd 42e5 35bf
000002a0: 249a 2ebf eecd 04bf bdac ebbe 663a a8be
000002b0: f9db 19be ff34 4ebf 36b3 ff3d 94f1 a6bc
000002c0: f1d7 d3be a9d6 fabe 5810 17bf 5388 213e
000002d0: a1fb 0a3f 304e 033f e9fa 613f b6a7 6f3e
000002e0: 6f3f 393f 5029 6a3f 9061 fdbb 0805 b13d
000002f0: dd6b 36be 0a84 a3be 160c 3e3f 4dc1 653e
00000300: 3952 633f 4d74 5cbd 56bb 993e 5c1b 763f
00000310: fda7 fa3e 704e 883e 745a 803d 13f8 b73f

sequential_1/dense_5/MatMul f4 [5, 10]
0.42464265 0.94620794 0.73487663 -0.4139707 -0.75793713 -1.1101761 0.020638557 0.5158864
-0.3401078 0.7759049 -0.71358085 -0.26246962 -0.405784 -0.98861694 0.56687135 1.4431435
-0.3293217 0.82719785 -0.09011183 -0.036097426 -0.73395777 1.1689693 -1.3061482 1.229374
0.42587486 -0.27591157 0.65752566 0.34506354 1.2124882 -1.0639532 0.84066653 -0.8975825
1.0524287 0.68019885 -1.6647816 0.06718174 -0.83663917 0.033784345 -0.9166184 -1.7601994
-0.12924768 -0.4200921 -0.14010765 -0.08604769 0.24706438 -0.19372296 0.2011476 -1.8869468
-0.4684507 0.32149634
00000000: c36a d93e af3a 723f e020 3c3f f8f3 d3be
00000010: 2b08 42bf 401a 8ebf 3112 a93c 2211 043f
00000020: 9c22 aebe b4a1 463f 3cad 36bf 6b62 86be
00000030: ecc2 cfbe 0016 7dbf 7b1e 113f edb8 b83f
00000040: db9c a8be 3dc3 533f 8d8c b8bd e5da 13bd
00000050: a8e4 3bbf c9a0 953f dd2f a7bf 215c 9d3f
00000060: 450c da3e 4844 8dbe 9a53 283f 2bac b03e
00000070: d032 9b3f 9e2f 88bf ec35 573f f7c7 65bf
00000080: fcb5 863f 8321 2e3f 9017 d5bf 9596 893d
00000090: fc2d 56bf 7461 0a3d 81a7 6abf 374e e1bf
000000a0: 8159 04be 5016 d7be 6178 0fbe c539 b0bd
000000b0: 72fe 7c3e 505f 46be a3f9 4d3e 7987 f1bf
000000c0: c5d8 efbe 2b9b a43e
